…

2024-01-18 20:08:19.287957: I tensorflow/core/platform/cpu_feature_guard.cc:182] This TensorFlow binary is optimized to use available CPU instructions in performance-critical operations.
To enable the following instructions: SSE SSE2 SSE3 SSE4.1 SSE4.2 AVX2 AVX_VNNI FMA, in other operations, rebuild TensorFlow with the appropriate compiler flags.
Model: "sequential"
_________________________________________________________________
 Layer (type)                Output Shape              Param #
=================================================================
 conv2d (Conv2D)             (None, 26, 26, 32)        320

 max_pooling2d (MaxPooling2  (None, 13, 13, 32)        0
 D)

 conv2d_1 (Conv2D)           (None, 11, 11, 64)        18496

 max_pooling2d_1 (MaxPoolin  (None, 5, 5, 64)          0
 g2D)

 flatten (Flatten)           (None, 1600)              0

 dropout (Dropout)           (None, 1600)              0

 dense (Dense)               (None, 10)                16010

=================================================================
Total params: 34826 (136.04 KB)
Trainable params: 34826 (136.04 KB)
Non-trainable params: 0 (0.00 Byte)
_________________________________________________________________
WARNING:tensorflow:From C:\Users\Asrock\AppData\Local\Packages\PythonSoftwareFoundation.Python.3.11_qbz5n2kfra8p0\LocalCache\local-packages\Python311\site-packages\keras\src\optimizers\__init__.py:309: The name tf.train.Optimizer is deprecated. Please use tf.compat.v1.train.Optimizer instead.
…
